

Using TensorFlow backend.
Init
Create model 3d
_________________________________________________________________
Layer (type)                 Output Shape              Param #   
=================================================================
reshape_1 (Reshape)          (None, 64, 64, 64, 1)     0         
_________________________________________________________________
conv3d_1 (Conv3D)            (None, 64, 64, 64, 64)    1792      
_________________________________________________________________
max_pooling3d_1 (MaxPooling3 (None, 32, 32, 32, 64)    0         
_________________________________________________________________
conv3d_2 (Conv3D)            (None, 32, 32, 32, 32)    55328     
_________________________________________________________________
max_pooling3d_2 (MaxPooling3 (None, 16, 16, 16, 32)    0         
_________________________________________________________________
conv3d_3 (Conv3D)            (None, 16, 16, 16, 16)    13840     
_________________________________________________________________
max_pooling3d_3 (MaxPooling3 (None, 8, 8, 8, 16)       0         
_________________________________________________________________
conv3d_4 (Conv3D)            (None, 8, 8, 8, 8)        3464      
_________________________________________________________________
max_pooling3d_4 (MaxPooling3 (None, 4, 4, 4, 8)        0         
_________________________________________________________________
conv3d_5 (Conv3D)            (None, 4, 4, 4, 8)        1736      
_________________________________________________________________
up_sampling3d_1 (UpSampling3 (None, 8, 8, 8, 8)        0         
_________________________________________________________________
conv3d_6 (Conv3D)            (None, 8, 8, 8, 16)       3472      
_________________________________________________________________
up_sampling3d_2 (UpSampling3 (None, 16, 16, 16, 16)    0         
_________________________________________________________________
conv3d_7 (Conv3D)            (None, 16, 16, 16, 32)    13856     
_________________________________________________________________
up_sampling3d_3 (UpSampling3 (None, 32, 32, 32, 32)    0         
_________________________________________________________________
conv3d_8 (Conv3D)            (None, 32, 32, 32, 64)    55360     
_________________________________________________________________
up_sampling3d_4 (UpSampling3 (None, 64, 64, 64, 64)    0         
_________________________________________________________________
conv3d_9 (Conv3D)            (None, 64, 64, 64, 1)     1729      
_________________________________________________________________
reshape_2 (Reshape)          (None, 64, 64, 64)        0         
=================================================================
Total params: 150,577
Trainable params: 150,577
Non-trainable params: 0
_________________________________________________________________
Load dataSet
Xtrain size : 62388
Ytrain size : 62388
Train 3d
2018-09-15 23:13:34.731853: I tensorflow/stream_executor/cuda/cuda_gpu_executor.cc:897] successful NUMA node read from SysFS had negative value (-1), but there must be at least one NUMA node, so returning NUMA node zero
…
